Team Glitch/ML Models/Chatbot/datta.pth (torch, 19764 bytes, 6 tensors)

l1.weight f4 [8, 286]
0	0xbc47f70f	-0.012204899
1	0xbe49bb77	-0.19700418
2	0xbe401483	-0.18757825
3	0xbd5fd1a9	-0.054643307
4	0xbe9414a9	-0.28922012
5	0x3e94933f	0.2901859
6	0x3f150e1f	0.5822467
7	0xbe01a4ed	-0.1266057
8	0xbf32901d	-0.6975115
9	0x3de74d13	0.112939976
10	0xbc47f70f	-0.012204899
11	0xbe3e0836	-0.1855782
12	0x3e363fdc	0.17797798
13	0x3f0a853c	0.5410955
14	0xbdf28e8f	-0.11843597
15	0x3e7639c7	0.24045478
16	0xbf21a75b	-0.6314599
17	0x3e37b45c	0.17939895
18	0xbd25ac9c	-0.040447816
19	0x3eedd920	0.46454716
20	0xbea12312	-0.3147207
21	0xbe10d36f	-0.14143156
22	0x3ec29c0c	0.3800968
23	0x3ea27e0e	0.31736797
24	0xbdfbe785	-0.12300018
25	0xbe5c1d18	-0.21495473
26	0x3e9b7ba5	0.3036777
27	0x3e3b5c10	0.18296838
28	0xbecd2e95	-0.40074602
29	0x3f04b4bd	0.51838285
30	0x3eeb4162	0.4594832
31	0xbd7ebaf4	-0.06219001
32	0x3eeca007	0.4621584
33	0x3e53b50e	0.20674536
34	0x3e591366	0.21198806
35	0x3d7450d4	0.059647396
36	0x3d32a8c5	0.043617982
37	0xbf3bfe5d	-0.73435
38	0xbe41fceb	-0.18944137
39	0x3e2bf671	0.16793229
40	0xbcb37343	-0.021905547
41	0x3f0959f4	0.5365288
42	0xbf227274	-0.6345589
43	0x3f1da967	0.6158661
44	0x3f081f4c	0.53172755
45	0xbda4da45	-0.08049444
46	0x3e73b3c6	0.23799047
47	0x3edbee79	0.42955378
48	0xbf041361	-0.5159207
49	0xbed1619e	-0.40894789
50	0xbf109c3a	-0.5648838
51	0x3c493f39	0.01228314
52	0xbe2aba9b	-0.16672747
53	0xbc47f70f	-0.012204899
54	0xbc47f70f	-0.012204899
55	0x3d43a14f	0.047761258
56	0xbd056e98	-0.032576174
57	0xbf155c4a	-0.58343947
58	0xbf4269b6	-0.7594255
59	0xbd9151c2	-0.07095672
60	0xbe4a250d	-0.19740696
61	0x3e11836b	0.14210288
62	0x3e74ecea	0.239185
63	0x3e46f4ee	0.19429371
64	0xbf6e3be8	-0.9306016
65	0xbe41f93a	-0.18942729
66	0x3e3657db	0.17806952
67	0xbebcc7ad	-0.3687109
68	0x3d981d7b	0.07427498
69	0x3e5a45c5	0.21315677
70	0x3c04df1c	0.008109834
71	0xbdbbbf59	-0.09167356
72	0xbf4d1abd	-0.80118924
73	0xbef606de	-0.48052114
74	0xbdc05a59	-0.093922324
75	0xbdfbae5a	-0.12289114
76	0xbf1f4145	-0.6220897
77	0xbf3ba528	-0.73298883
78	0xbef9fe56	-0.48826855
79	0xbf3a7555	-0.72835284
80	0x3e195b3d	0.14976211
81	0x3eb826b8	0.3596704
82	0x3d188871	0.037239496
83	0x82e76f00	-3.400611e-37
84	0xbf742005	-0.9536136
85	0xbf3c7eb8	-0.7363086
86	0xbc47f70f	-0.012204899
87	0x3f3a0737	0.7266726
88	0xbf3c7eac	-0.73630786
89	0x3de71d6a	0.11284907
90	0x3e3d713f	0.18500231
91	0xbf3bc992	-0.73354447
92	0x3e13d2be	0.1443586
93	0xbeb29046	-0.34875697
94	0xbde9eb2f	-0.11421811
95	0x3ecb7d1a	0.39743882
96	0xbec83056	-0.39099377
97	0xbf2ef9ca	-0.683499
98	0x3cc9ec66	0.024648856
99	0x3d18887f	0.037239548
100	0x3e13edf2	0.14446238
101	0xbf2adc7e	-0.66742694
102	0x3e7f0a88	0.24906361
103	0xbe43b4f4	-0.19111997
104	0x3e8a5420	0.27017307
105	0x3d2c9ee3	0.042143714
106	0x3f6110de	0.8791636
107	0x3d3ae72e	0.045630626
108	0x3d444f03	0.047926914
109	0xbd7d3f98	-0.061828226
110	0x3d2ab078	0.0416722
111	0xbdc12b9f	-0.09432148
112	0x3d2e41c9	0.042543206
113	0x3ec554ea	0.38541347
114	0xbe8f430d	-0.27980843
115	0xbe775e98	-0.24157178
116	0x3db0381b	0.08604451
117	0x3e2433fd	0.16035457
118	0x3eca8633	0.3955551
119	0x3de73172	0.11288728
120	0x3e289e1f	0.16466568
121	0xbdb0b854	-0.08628908
122	0xbf1f7203	-0.62283343
123	0x3f3cffa0	0.7382755
124	0x3f80bde2	1.0057948
125	0xbf3c7eb6	-0.73630846
126	0x3d2fdbcf	0.042934235
127	0x3e444f82	0.19170955
128	0x3d2aef25	0.041731972
129	0x3ddc8808	0.107681334
130	0x3e8a8221	0.27052405
131	0x3f51d2e6	0.8196243
132	0x3e755e03	0.23961644
133	0x3e9d6989	0.3074458
134	0xbdb4645a	-0.08808203
135	0xbf4fd4e9	-0.8118425
136	0xbe9f9d86	-0.31174868
137	0x3e42d327	0.1902586
138	0xbf4a0694	-0.7891629
139	0xbe882ea2	-0.26598078
140	0xbe2a6852	-0.16641358
141	0x3f1c73ce	0.61114204
142	0x3e4253dd	0.18977304
143	0x3fa09740	1.2546158
144	0x3e203165	0.15643843
145	0x3e531f5d	0.20617433
146	0xbc47f70f	-0.012204899
147	0x3e2cb6c2	0.16866592
148	0x3ee5642b	0.44802985
149	0xbcb2764c	-0.021784924
150	0xbf3bc981	-0.73354346
151	0xbeaade35	-0.33372656
152	0x3f304430	0.68854046
153	0x3e6a7ba7	0.22898732
154	0xbc96ff2f	-0.018432228
155	0xbe6d7c5e	-0.23191974
156	0x3e841edb	0.2580479
157	0xbf16d782	-0.5892259
158	0x3f6d10e6	0.9260391
159	0xbcc9b0fd	-0.024620527
160	0x3e57a855	0.21060307
161	0xbf3c7eb2	-0.7363082
162	0x3ee2a1dc	0.44264114
163	0xbf2608cc	-0.6485717
164	0x3c6a0276	0.014282813
165	0xbee05ecb	-0.4382232
166	0x3e7b08fb	0.24515145
167	0x3cfc4278	0.030793414
168	0x3f4f6403	0.8101198
169	0xbf434844	-0.76282144
170	0xbf3c7eaf	-0.73630804
171	0xbf3c7ead	-0.7363079
172	0x3d36160d	0.044454623
173	0xbe16d370	-0.14729095
174	0x3f362ded	0.7116383
175	0x3e2b191f	0.16708802
176	0xbecd31ea	-0.40077144
177	0xbf1095fe	-0.5647887
178	0x3da8c8d0	0.08241427
179	0xbe385c45	-0.18003948
180	0x3d188871	0.037239496
181	0xbe9c9249	-0.30580357
182	0x3e1c332a	0.15253893
183	0x3ea8074b	0.32818064
184	0xbc47f70f	-0.012204899
185	0xbdfbe273	-0.12299051
186	0x3e42d33d	0.19025894
187	0xbe8b378d	-0.2719082
188	0x3efcb50d	0.4935688
189	0xbf623d87	-0.88375133
190	0xbf088f7f	-0.5334396
191	0x3d188876	0.037239514
192	0xbe94ed96	-0.29087514
193	0xbe9c9249	-0.30580357
194	0x3eb2f45a	0.3495205
195	0xbf3bc8a5	-0.73353034
196	0x3e08bf1f	0.13354157
197	0x3ef64bee	0.48104805
198	0xbd25c53a	-0.040471293
199	0x3e3babef	0.18327306
200	0xbea36950	-0.31916285
201	0x3e9fd4fa	0.31217176
202	0x3d295e5b	0.04134975
203	0x3e3657c1	0.17806913
204	0xbf3a353a	-0.7273747
205	0x3ecaa25d	0.39576998
206	0x3f8b5406	1.0885017
207	0xbeb7c1e2	-0.35890108
208	0x3e155413	0.14582853
209	0x3f14a565	0.5806487
210	0x3e8f496a	0.27985698
211	0x3e7edb4a	0.2488834
212	0xbdfc8c32	-0.12331428
213	0xbe4a2e6b	-0.1974427
214	0x3bfbc243	0.00768307
215	0x3ddbff76	0.10742085
216	0x3db9a579	0.090647645
217	0xbe2bb4ba	-0.1676816
218	0xbeb0d7a4	-0.3453952
219	0x02065f08	9.872038e-38
220	0x3ee5f511	0.44913533
221	0x3f29c96d	0.66322976
222	0x3e5334b5	0.20625575
223	0x3f15e5b9	0.58553654
224	0xbef7b6a0	-0.4838152
225	0x3e48bfff	0.1960449
226	0x3fb72ef0	1.4311199
227	0x3f179903	0.5921785
228	0xbf49a909	-0.7877355
229	0x3de7338c	0.11289129
230	0x3c493f39	0.01228314
231	0x3f3bc114	0.7334149
232	0x3cff2591	0.031145843
233	0x3cc9ec66	0.024648856
234	0xbf734677	-0.95029396
235	0x3f032bff	0.5123901
236	0xbd92bdb2	-0.07165088
237	0xbf0d65db	-0.55233544
238	0xbf362335	-0.7114747
239	0xbe990c90	-0.29892397
240	0xbebd7503	-0.37003335
241	0x3e195663	0.1497436
242	0x3c56d0a8	0.013111271
243	0xbe9246ad	-0.28569546
244	0x3eb8e33c	0.36110866
245	0xbdbac833	-0.09120216
246	0x3ec919a3	0.39277372
247	0xbdfe774d	-0.124250986
248	0xbe292099	-0.16516341
249	0x3ea76961	0.32697585
250	0x3e477f2c	0.19482106
251	0x3d48d0cb	0.049027245
252	0xbec7dc2f	-0.39035174
253	0x3da3abf0	0.07991779
254	0xbd7ce4ca	-0.061741628
255	0x3e82f01b	0.2557381

l1.bias f4 [8]
0	0x3f3c7eab	0.7363078
1	0x3f96d3d3	1.1783394
2	0x3f85c388	1.0450296
3	0x3f9a4ff8	1.2055655
4	0x3fa36b83	1.2767185
5	0x3fc58d62	1.5433772
6	0x3f88d2e6	1.0689361
7	0x3f29e6cb	0.6636779

l2.weight f4 [8, 8]
0	0xbf8cb838	-1.0993719
1	0xbf9cffab	-1.2265524
2	0xbe8ead78	-0.2786672
3	0x3ff36d24	1.9017682
4	0xbefb5715	-0.49089876
5	0x3fdc7a1e	1.7224767
6	0x405e08fc	3.4692984
7	0xbe2bfe60	-0.16796255
8	0x3f9ea67b	1.2394556
9	0xbee8c5bf	-0.45463368
10	0x4029260f	2.642948
11	0x400fbd24	2.2459192
12	0x3f8b1c23	1.0867962
13	0x3e01f166	0.12689742
14	0xc009d464	-2.1535883
15	0x401c09d3	2.4380996
16	0xbff0901f	-1.8793982
17	0x40069df0	2.1033897
18	0xbf8e49e7	-1.1116303
19	0x3f2af820	0.6678486
20	0x3fb42364	1.40733
21	0x3f73b16e	0.9519261
22	0xbe3c54ff	-0.18391798
23	0xbf8d35a9	-1.1032001
24	0x3fc9853f	1.5743788
25	0x400a5fc4	2.162095
26	0x3fbe8d48	1.4886866
27	0xbf17898f	-0.5919427
28	0xbf0e6b15	-0.55632144
29	0x4002ea7a	2.0455613
30	0xbe851cd4	-0.25998557
31	0xbff2320b	-1.8921522
32	0x40819841	4.0498357
33	0x3f6680aa	0.90040076
34	0xbfead58f	-1.8346423
35	0xba3ff960	-0.00073232315
36	0x3e546553	0.20741777
37	0x3fde5ca5	1.7372023
38	0x3f9fbb09	1.2478954
39	0x400bfa23	2.1871421
40	0xbf86fb31	-1.0545408
41	0x401f9081	2.4931948
42	0x4016bc45	2.355241
43	0xbfa32357	-1.274516
44	0x3fd74895	1.6819025
45	0xbfad9006	-1.3559577
46	0x3fcd2ac0	1.6028671
47	0x402e520a	2.7237573
48	0xbfc1ee93	-1.5150932
49	0xbe4b914b	-0.19879644
50	0x3e72ca2a	0.23709932
51	0xbf1df643	-0.6170389
52	0x4025de20	2.5916824
53	0x3ff8b528	1.9430285
54	0x3d3a6df7	0.045515027
55	0xbf02c2b7	-0.5107836
56	0x3fbdec36	1.4837711
57	0x40149b9f	2.3219984
58	0xbf1e776d	-0.6190098
59	0x402b5879	2.677275
60	0x3faad125	1.3345076
61	0xbf87eab4	-1.0618501
62	0xbed0a6e8	-0.4075234
63	0xbf932d14	-1.1498132

l2.bias f4 [8]
0	0x3f951371	1.1646558
1	0x3e98864d	0.29789963
2	0x3f7309d8	0.94936895
3	0x3f483221	0.7820149
4	0xbe315a85	-0.17319687
5	0x3f82d01a	1.0219758
6	0x3f0dbb9f	0.5536441
7	0x3e8aff04	0.27147686

l3.weight f4 [76, 8]
0	0xbff1bae5	-1.8885161
1	0x3edb2e77	0.42808887
2	0xbee9af45	-0.45641533
3	0xbe8aec24	-0.27133286
4	0xbe9ceb44	-0.30648243
5	0xbd1cd217	-0.038286295
6	0xbe68da35	-0.2273949
7	0x3f35450a	0.7080847
8	0x3f4515c2	0.76986325
9	0xbe307318	-0.17231405
10	0xbf29e82d	-0.663699
11	0xbfffb17a	-1.9976037
12	0x3ea4e0c6	0.3220274
13	0xbe8f3f32	-0.27977902
14	0xbff739ee	-1.9314554
15	0x3d6249d4	0.05524619
16	0x3dcf014f	0.101076715
17	0xbfcd6357	-1.6045941
18	0xbeaae667	-0.33378908
19	0xbc3acf48	-0.011401959
20	0x3f3776c1	0.7166558
21	0xbf5abbe9	-0.8544298
22	0x3f17c2bd	0.5928152
23	0xbf1a2ac6	-0.6022152
24	0x3f4834f2	0.7820579
25	0xbff09994	-1.8796868
26	0x3e30d400	0.17268372
27	0x3e6cf8b9	0.23141755
28	0x3e8b765d	0.27238742
29	0xc0073c47	-2.113054
30	0xbe15276f	-0.14565824
31	0xbf2b9c23	-0.6703512
32	0x3d1d30dd	0.038376678
33	0xbeaea28a	-0.34108382
34	0xc005d0e1	-2.090874
35	0x3f0b71c3	0.5447046
36	0xbd902209	-0.07037742
37	0x3e0ba38d	0.13636608
38	0xbeb609cb	-0.35554346
39	0xbf0a88b3	-0.54114836
40	0x3e7b2216	0.24524722
41	0xbf6b056c	-0.9180515
42	0xbfbb5784	-1.4636083
43	0x3f2feecf	0.6872377
44	0x3e4faf92	0.20281819
45	0xbe08dd3b	-0.13365643
46	0xbfc90206	-1.5703743
47	0x3d1a37f5	0.03765102
48	0xbdf99116	-0.12185876
49	0xbebd2755	-0.3694407
50	0x3ed4ac09	0.41537502
51	0xbe444a47	-0.1916896
52	0xbf9e95a0	-1.2389412
53	0xbd9d1556	-0.07670085
54	0xbc237120	-0.009975702
55	0x3f2b70a8	0.66968775
56	0x3e931ad2	0.287314
57	0xbe75a694	-0.23989326
58	0xbf1e065e	-0.61728466
59	0xbfbe3d49	-1.4862453
60	0xbe92b16d	-0.2865099
61	0x3f6f4f40	0.934803
62	0xbf7fa0c8	-0.9985471
63	0xbf01b43f	-0.5066566
64	0xc0033054	-2.0498247
65	0xbed6194b	-0.41816172
66	0x3e88bb37	0.26705334
67	0x3f1d6274	0.6147835
68	0xbf818701	-1.0119325
69	0x3e0f7dc0	0.14012814
70	0x3f5f8584	0.87313104
71	0xbe3a12cd	-0.18171234
72	0xbf06cb88	-0.52654314
73	0x3da21455	0.07914034
74	0xba61f55b	-0.00086196297
75	0xbe0b5354	-0.13606006
76	0xbf06fd76	-0.527305
77	0x3ed1efd0	0.41003275
78	0x3f23d1a3	0.63991755
79	0xbfef91f5	-1.8716418
80	0xbfc42ee1	-1.5326806
81	0x3f022d4d	0.50850374
82	0xbf24b31d	-0.64335805
83	0x3f6258e7	0.88416904
84	0xbf911db6	-1.1337192
85	0x3e392924	0.180821
86	0xbf878b44	-1.0589375
87	0xbf0a50fe	-0.54029834
88	0x3f40403c	0.75098014
89	0xbf164948	-0.5870557
90	0xbe3082fc	-0.17237467
91	0xbf1c466a	-0.61044943
92	0xbd06fc91	-0.03295571
93	0xbed7c030	-0.42138815
94	0x3ea978d0	0.33099985
95	0xbfbfddf4	-1.498961
96	0x3f09ad5f	0.5378017
97	0x3ef456f0	0.47722578
98	0xbfc5e6a8	-1.5461016
99	0xbf8fceb4	-1.1234956
100	0xbf2aab71	-0.6666785
101	0x3d8b686e	0.06807028
102	0x3ec25891	0.37958196
103	0xbf95fa9b	-1.1717104
104	0x3f014731	0.50499254
105	0xbf106a14	-0.5641186
106	0xbfa9c2cb	-1.3262571
107	0xc000a4df	-2.010063
108	0x3f138d4d	0.5763748
109	0x3e29669d	0.1654305
110	0xbcd2aaa5	-0.025716135
111	0xbfabac2e	-1.341192
112	0x3cc9f716	0.024653953
113	0xbfc7ff08	-1.5624704
114	0x3e9cc8f8	0.30622077
115	0xbfa41df2	-1.2821639
116	0x3e287a07	0.164528
117	0x3edb37b5	0.4281594
118	0x3f1186ec	0.568465
119	0xbf03ea06	-0.51528966
120	0x3f54d210	0.8313303
121	0xbfdaf9c6	-1.7107475
122	0x3e2741a6	0.16333637
123	0x3ed64641	0.41850474
124	0xbf0d82c2	-0.55277646
125	0xbe34c622	-0.17653707
126	0xbee5b7b3	-0.44866714
127	0xbf1e81cd	-0.6191681
128	0x3f04e96b	0.5191867
129	0xbeb46ea2	-0.35240656
130	0xbf84ca85	-1.0374304
131	0x3dace75a	0.08442564
132	0xbfb20446	-1.3907554
133	0xbd53b1c5	-0.051683206
134	0x3f440b82	0.7658006
135	0xbf12025d	-0.57034856
136	0xbf19d976	-0.60097444
137	0x3e38933d	0.18024917
138	0xbfcf2d6c	-1.6185737
139	0x3f136a81	0.5758439
140	0xbf1d0ccf	-0.6134767
141	0xbed99503	-0.424965
142	0xbe075eca	-0.13219753
143	0x3f041862	0.51599705
144	0x3f4d0e9d	0.80100423
145	0xbfb32c96	-1.3997982
146	0xbe55a744	-0.20864588
147	0xbfc602d0	-1.5469608
148	0xbe94699d	-0.28986827
149	0x3dc6bdc6	0.09704165
150	0xbef27a2d	-0.47358838
151	0x3e8ef82b	0.27923712
152	0x3e94d1c5	0.2906629
153	0x3ea3ccf7	0.31992313
154	0xbdfdc97a	-0.12391944
155	0xbf094964	-0.5362761
156	0xbf06c16c	-0.5263889
157	0xbfabe045	-1.3427817
158	0xbf2de073	-0.6792061
159	0x3f1ea4f2	0.61970437
160	0xbf9e40bc	-1.2363505
161	0x3e9f8fc7	0.3116438
162	0xbfa8e5bc	-1.3195109
163	0x3e691a7d	0.2276401
164	0xbe577b7f	-0.21043204
165	0xbe597504	-0.21236044
166	0x3f1717a4	0.5902045
167	0xbed3f46e	-0.41397423
168	0xbf3cd0ff	-0.737564
169	0x3e9ec0f5	0.3100659
170	0xbee25f6e	-0.44213432
171	0xbce08f3b	-0.027412048
172	0xbfd959ae	-1.6980493
173	0x3ba2a62a	0.004963656
174	0x3f693c23	0.91107386
175	0xbed9af24	-0.42516434
176	0x3ea785ed	0.32719365
177	0xbfdbe510	-1.7179279
178	0x3e11d555	0.14241536
179	0x3ea6e54a	0.3259681
180	0xbdb6ff02	-0.08935358
181	0xbe22828f	-0.15870117
182	0x3f091f63	0.5356352
183	0xc0050b12	-2.0788007
184	0xbf124fa1	-0.57152754
185	0xbfea3ea5	-1.8300368
186	0xbd3cef5f	-0.04612672
187	0x3fb8021e	1.4375646
188	0x3d902c9b	0.07039758
189	0xbdb7dd3d	-0.08977745
190	0xbf4d809c	-0.8027437
191	0xbdd66cf7	-0.10470002
192	0xbfc7c6a6	-1.5607498
193	0xbf9d6264	-1.2295651
194	0x3f85b2b3	1.044516
195	0x3ebf229e	0.37331098
196	0x3e806a61	0.2508116
197	0xbf9ebe58	-1.2401838
198	0x3f713263	0.9421751
199	0x3ee52f59	0.44762686
200	0x3f27279b	0.6529481
201	0xbfb52617	-1.4152249
202	0x3f0a3f66	0.5400299
203	0xbf5da0d0	-0.86573505
204	0xbe2cd5e4	-0.16878468
205	0xbf8bc841	-1.0920488
206	0x3dfe2912	0.12410177
207	0x3f18f875	0.59754115
208	0x3e596619	0.21230353
209	0xbe2d7f50	-0.16943097
210	0xbfc69be2	-1.5516322
211	0xbf159cf5	-0.5844262
212	0x3e208908	0.15677273
213	0x3e8a7847	0.2704489
214	0xc0128c45	-2.2898114
215	0x3eaa5151	0.33265164
216	0x3f25411f	0.6455249
217	0xbed39096	-0.41321248
218	0xbfdfe1e2	-1.7490809
219	0xbef1d18e	-0.4723019
220	0x3dfa7200	0.12228775
221	0xbded9c06	-0.11602025
222	0xbed606fd	-0.41802207
223	0xbdbfdc50	-0.09368193
224	0xbf7b5e8c	-0.9819114
225	0xbd9d0f43	-0.076689266
226	0xbf8c0def	-1.0941752
227	0x3e0c5d15	0.13707383
228	0x3f1239d5	0.57119495
229	0x3e25548e	0.16145536
230	0xbf8838c8	-1.0642328
231	0xbdb3e1a7	-0.08783274
232	0xbed9110a	-0.42395812
233	0xbee6bcb1	-0.45065835
234	0xbf8af6bb	-1.0856546
235	0x3f374950	0.7159624
236	0xbee3b5a3	-0.44474515
237	0x3f1a5e68	0.603003
238	0xbfd8c0f7	-1.6933888
239	0xbdb6b40c	-0.0892106
240	0xbfb0b151	-1.3804113
241	0x3f14cfdf	0.58129686
242	0xbf49bd83	-0.78804797
243	0xbf59f70f	-0.85142606
244	0x3f1cab5e	0.61198986
245	0xbf42e15b	-0.76125115
246	0xbf918c6b	-1.1370977
247	0x3f1ca648	0.61191225
248	0xbfb8322c	-1.4390311
249	0x3dca4be8	0.09877759
250	0xbc8be44f	-0.01707664
251	0x3ef6d340	0.48208046
252	0x3e586f2c	0.21136159
253	0xbf6cbfa9	-0.9247995
254	0xbf4ddaa4	-0.80411744
255	0x3efd564c	0.49479902

l3.bias f4 [76]
0	0xbe78aef4	-0.2428549
1	0x3eaa0adc	0.3321141
2	0xbe221ae5	-0.15830572
3	0x3d198ae7	0.037485983
4	0xbeade0b1	-0.33960488
5	0x3d4b9bec	0.049709246
6	0x3e32bef2	0.17455652
7	0x3e08b918	0.13351858
8	0xbe0c46e3	-0.13698916
9	0x3f3cc015	0.73730594
10	0x3e557d2f	0.20848535
11	0xbe46bae5	-0.19407232
12	0x3d36aa09	0.044595752
13	0x3de7d30b	0.1131955
14	0xbe0ae5c4	-0.13564211
15	0x3ea62a32	0.32454067
16	0xbdb9b7d4	-0.090682656
17	0xbdb39b32	-0.087698355
18	0xbd6f081a	-0.058357336
19	0xbcb4883b	-0.022037616
20	0xbe257f64	-0.16161877
21	0xbe41af42	-0.18914512
22	0xbd079968	-0.033105284
23	0x3e82d770	0.2555499
24	0x3eb26d1a	0.34848863
25	0x3d05e0fd	0.03268527
26	0xbd4a0cb5	-0.049328525
27	0x3c627cc0	0.013823688
28	0xbea6e2be	-0.32594866
29	0xbc9da473	-0.019243455
30	0x3d2b558e	0.04182964
31	0xbd8ae37f	-0.06781673
32	0x3aca54b0	0.0015436616
33	0x3d64d1b1	0.05586404
34	0xbeb7df9e	-0.35912794
35	0x3d27f3db	0.041004043
36	0xbd9485e7	-0.07252102
37	0xbda4382f	-0.08018529
38	0xbdcfb069	-0.101410694
39	0x3bc664cf	0.006054498
40	0xbe03550e	-0.12825415
41	0x3d88e5dd	0.06684468
42	0x3e030d48	0.12798035
43	0xbd3ddc7d	-0.046352852
44	0x3b2bd774	0.002622095
45	0xbdcbcf89	-0.099516936
46	0xbde94bd3	-0.113914154
47	0xbf931744	-1.1491475
48	0xbe7cac47	-0.24675094
49	0x3e13e7e5	0.1444393
50	0xbccc3581	-0.024927856
51	0x3ec6f874	0.3886143
52	0x3c6f4d7e	0.014605878
53	0xbe45960a	-0.19295517
54	0xbe66d454	-0.22541934
55	0xbc6cab87	-0.014445192
56	0xb90a927e	-0.00013215278
57	0xbe11091a	-0.14163628
58	0xbf28dff7	-0.65966743
59	0x3e2a1126	0.16608104
60	0x3e0104c3	0.12599473
61	0xbe8727d7	-0.26397583
62	0x3e150b86	0.14555177
63	0xbe3999af	-0.18125032
64	0xbde88fa4	-0.11355522
65	0xbe792c07	-0.24333201
66	0x3d55e82d	0.052223373
67	0xbd10febe	-0.03539919
68	0x3e19931e	0.14997527
69	0xbd1a8bb8	-0.037730902
70	0x3e509fec	0.20373505
71	0x3da5124d	0.08060131
72	0xbd81c2a2	-0.063359514
73	0xbe9356c4	-0.28777134
74	0xbe47ae0e	-0.1949999
75	0x3daec002	0.08532716
